…
ji/llmggen/LLMGGen/data/', device='cuda:0', seed=0, save_model_name='GraphMixer_seed0bert')
2025-09-13 13:18:39,638 - root - INFO - node feature size (5634, 128)
2025-09-13 13:18:39,638 - root - INFO - edge feature size (16962, 128)
2025-09-13 13:18:39,639 - root - INFO - node feature example [-0.40159065  1.3061011  -2.449399   -0.7349775   0.13368051]
2025-09-13 13:18:39,639 - root - INFO - edge feature example [-0.7235904   0.68711084 -1.9117035  -0.5845679   0.34808284]
2025-09-13 13:18:39,884 - root - INFO - model -> Sequential(
  (0): GraphMixer(
    (time_encoder): TimeEncoder(
      (w): Linear(in_features=1, out_features=100, bias=True)
    )
    (projection_layer): Linear(in_features=228, out_features=128, bias=True)
    (mlp_mixers): ModuleList(
      (0-1): 2 x MLPMixer(
        (token_norm): LayerNorm((20,), eps=1e-05, elementwise_affine=True)
        (token_feedforward): FeedForwardNet(
          (ffn): Sequential(
            (0): Linear(in_features=20, out_features=10, bias=True)
            (1): GELU(approximate='none')
            (2): Dropout(p=0.1, inplace=False)
            (3): Linear(in_features=10, out_features=20, bias=True)
            (4): Dropout(p=0.1, inplace=False)
          )
        )
        (channel_norm): LayerNorm((128,), eps=1e-05, elementwise_affine=True)
        (channel_feedforward): FeedForwardNet(
          (ffn): Sequential(
            (0): Linear(in_features=128, out_features=512, bias=True)
            (1): GELU(approximate='none')
            (2): Dropout(p=0.1, inplace=False)
            (3): Linear(in_features=512, out_features=128, bias=True)
            (4): Dropout(p=0.1, inplace=False)
          )
        )
      )
    )
    (output_layer): Linear(in_features=256, out_features=128, bias=True)
  )
  (1): MergeLayer(
    (fc1): Linear(in_features=256, out_features=128, bias=True)
    (fc2): Linear(in_features=128, out_features=1, bias=True)
    (act): ReLU()
  )
)
2025-09-13 13:18:39,884 - root - INFO - model name: GraphMixer, #parameters: 1440436 B, 1406.67578125 KB, 1.3737068176269531 MB.
2025-09-13 13:19:11,403 - root - INFO - Epoch: 10, learning rate: 0.0001, train loss: 0.5092
2025-09-13 13:19:11,403 - root - INFO - train average_precision, 0.8349
2025-09-13 13:19:11,403 - root - INFO - train roc_auc, 0.8102
…
