…
ngth=48, learning_rate=0.0001, dropout=0.1, num_epochs=200, optimizer='Adam', weight_decay=0.0, patience=5, val_ratio=0.15, test_ratio=0.15, num_runs=1, test_interval_epochs=10, negative_sample_strategy='historical', load_best_configs=True, save_root='/data/jiarui_ji/llmggen/LLMGGen/lp_models/', data_root='/data/jiarui_ji/llmggen/LLMGGen/data/', device='cuda:0', seed=0, load_model_name='GraphMixer_seed0bert', save_result_name='historical_negative_sampling_GraphMixer_seed0')
2025-09-13 13:42:39,250 - root - INFO - model -> Sequential(
  (0): GraphMixer(
    (time_encoder): TimeEncoder(
      (w): Linear(in_features=1, out_features=100, bias=True)
    )
    (projection_layer): Linear(in_features=228, out_features=128, bias=True)
    (mlp_mixers): ModuleList(
      (0-1): 2 x MLPMixer(
        (token_norm): LayerNorm((20,), eps=1e-05, elementwise_affine=True)
        (token_feedforward): FeedForwardNet(
          (ffn): Sequential(
            (0): Linear(in_features=20, out_features=10, bias=True)
            (1): GELU(approximate='none')
            (2): Dropout(p=0.1, inplace=False)
            (3): Linear(in_features=10, out_features=20, bias=True)
            (4): Dropout(p=0.1, inplace=False)
          )
        )
        (channel_norm): LayerNorm((128,), eps=1e-05, elementwise_affine=True)
        (channel_feedforward): FeedForwardNet(
          (ffn): Sequential(
            (0): Linear(in_features=128, out_features=512, bias=True)
            (1): GELU(approximate='none')
            (2): Dropout(p=0.1, inplace=False)
            (3): Linear(in_features=512, out_features=128, bias=True)
            (4): Dropout(p=0.1, inplace=False)
          )
        )
      )
    )
    (output_layer): Linear(in_features=256, out_features=128, bias=True)
  )
  (1): MergeLayer(
    (fc1): Linear(in_features=256, out_features=128, bias=True)
    (fc2): Linear(in_features=128, out_features=1, bias=True)
    (act): ReLU()
  )
)
2025-09-13 13:42:39,250 - root - INFO - model name: GraphMixer, #parameters: 1440436 B, 1406.67578125 KB, 1.3737068176269531 MB.
2025-09-13 13:42:39,250 - root - INFO - load model /data/jiarui_ji/llmggen/LLMGGen/lp_models/saved_models/GraphMixer/8days_dytag_small_text_en/GraphMixer_seed0bert/GraphMixer_seed0bert.pkl
2025-09-13 13:42:39,256 - root - INFO - get final performance on dataset 8days_dytag_small_text_en...
…
